assets/model.tflite (tflite, 149220 bytes, 10 tensors)

sequential/conv2d/Relu;sequential/conv2d/BiasAdd;sequential/conv2d_2/Conv2D;sequential/conv2d/Conv2D;sequential/conv2d/BiasAdd/ReadVariableOp f4 [32, 3, 3, 3]
000000 36 c6 0e b9 5f 60 c3 b9 a0 54 af 39 e4 c2 bd 39
       -0.00013616015 -0.000372651 0.00033441652 0.00036194094
000010 b0 ba da b9 3e d0 8b b9 16 fb e3 38 ab 9a 27 39
       -0.00041719293 -0.00026667299 0.00010870972 0.0001598398
000020 23 8d 17 3a 83 98 e1 37 08 26 92 b8 0d 23 5f b9
       0.0005781224 2.6893109e-05 -6.9689064e-05 -0.00021279995
000030 a0 b0 35 b9 5f 60 3b 39 12 c6 f6 39 83 fa 9e b9
       -0.00017327303 0.00017869611 0.0004706835 -0.00030322754
000040 1d ac d3 38 6d c5 e0 39 1e 4b 5b b9 c1 63 24 b9
       0.000100933226 0.00042871703 -0.00020913451 -0.0001567742
000050 6b 00 ba 39 e9 57 60 39 7f cd 04 39 4e 3c 81 39
       0.00035476996 0.00021395054 0.00012665054 0.00024649728
000060 0e e9 12 b9 5d 89 9d b9 f5 67 16 3a d2 aa ef 39
       -0.00014010465 -0.00030047717 0.00057375367 0.00045712903
000070 d6 56 cf b9 9a be e1 b9 d2 85 be b9 97 e6 c1 39
       -0.00039546815 -0.00043057353 -0.00036339328 0.0003698363
000080 4f 9d 5f b9 f3 c3 e8 39 66 7d 22 b9 1a 3f 01 ba
       -0.0002132554 0.00044396482 -0.00015496238 -0.00049303623
000090 75 c9 04 39 c8 30 d8 37 ae 0c 84 39 bf 69 e8 b8
       0.0001266355 2.5771922e-05 0.0002518645 -0.00011082319
0000a0 70 e3 cf 38 8b 6c e7 b7 ff 6f cb 39 68 ee 48 b9
       9.912893e-05 -2.758789e-05 0.0003880262 -0.000191623
0000b0 a1 79 b4 39 75 42 a4 39 d5 4a 9f b9 15 e1 fa 38
       0.00034422896 0.00031330032 -0.00030382597 0.00011962854
0000c0 99 b3 00 ba 7c fb 18 ba 67 d9 82 39 b4 d9 a6 39
       -0.00049095746 -0.0005835814 0.0002495751 0.0003182419
0000d0 94 3c 8d 39 74 91 30 b9 4c 63 ea 39 4c 95 82 39
       0.0002693875 -0.00016838853 0.0004470594 0.00024906767
0000e0 57 65 ac b9 ef 52 15 3a d9 4d e1 b7 8c 29 b5 b7
       -0.000328819 0.0005696257 -2.685834e-05 -2.1596228e-05
0000f0 ac a4 32 b9 87 f0 ff b9 ae 31 77 b9 99 ee de 39
       -0.00017036748 -0.00048816597 -0.00023574263 0.0004252091
000100 3c 97 10 3a 8a 4f 1d ba a7 7a 82 39 96 5a fe b9
       0.00055157 -0.0006000927 0.00024886915 -0.00048514147
000110 79 c6 2a b8 65 4f e1 b7 69 a2 d7 b9 8f d7 43 b9
       -4.0716e-05 -2.6859061e-05 -0.00041129 -0.00018676951
000120 d0 ff fe b9 a2 0f 46 39 e5 e3 0f ba 48 9a da 39
       -0.0004863725 0.00018888575 -0.0005488976 0.0004169515
000130 b4 a2 03 3a 4b fd 29 b9 e6 95 dc 38 92 f1 c1 39
       0.0005021498 -0.00016211455 0.00010518338 0.00036991813
000140 00 c6 7d 37 7f 53 76 b9 fb 41 21 b9 56 c8 83 39
       1.5126076e-05 -0.00023491493 -0.00015378736 0.0002513553
000150 bc fe 84 39 c7 0f 7f b9 94 4d 5b 39 85 56 54 37
       0.00025366794 -0.00024324573 0.00020914368 1.2656329e-05
000160 c5 67 00 3a e2 7b 7c b9 cb 7b ec 39 b6 c2 62 b8
       0.00048982754 -0.00024078743 0.0004510566 -5.4063938e-05
000170 69 0b ff 39 4a ec 2f 38 c0 73 88 b9 92 c5 e3 39
       0.0004864589 4.1943313e-05 -0.00026026182 0.00043444015
000180 ff a2 88 37 9e 1d ed b9 35 58 20 b9 11 3b 9d 39
       1.6288364e-05 -0.0004522623 -0.00015291649 0.0002998938
000190 36 f9 0e ba ec af 81 39 80 65 15 b9 39 c2 d8 b9
       -0.00054540054 0.0002473587 -0.00014247559 -0.00041343438
0001a0 77 56 96 39 32 ed 85 b9 50 51 f7 b9 e2 ad bb 39
       0.0002867465 -0.0002554446 -0.00047172094 0.00035796972
0001b0 05 1a 10 3a c0 00 5b 39 4c 9c 0a ba 7a 64 09 b9
       0.0005497041 0.00020885747 -0.0005287572 -0.00013102769
0001c0 84 8f 15 b8 a0 ff 0c 39 d1 81 00 3a ca 9c b4 b8
       -3.5658028e-05 0.00013446668 0.00049021567 -8.612273e-05
0001d0 4e d7 e2 b4 0c 71 e3 39 c0 a5 7c b9 dd 74 a0 b8
       -4.2252435e-07 0.0004338104 -0.0002409434 -7.651162e-05
0001e0 9d 64 05 b9 14 d2 7c b9 68 ea 20 ba 78 de 9a b8
       -0.0001272135 -0.00024110853 -0.0006138445 -7.38473e-05
0001f0 5b 85 4c 38 75 26 a4 b8 2d 5c 00 ba 8a da cd b7
       4.8761587e-05 -7.8272926e-05 -0.0004896548 -2.453967e-05
000200 b8 62 d8 b9 f7 c0 1f b9 56 ea 12 35 ec 7e 1b b9
       -0.00041272282 -0.00015235307 5.473024e-07 -0.00014829234
000210 34 1e bd 39 b9 4e d7 39 e2 ba a8 b8 46 8b 29 b9
       0.00036071392 0.0004106665 -8.045674e-05 -0.0001616898
000220 54 f4 5d 39 a1 fb 0e ba e1 43 29 39 90 94 bf 39
       0.00021167222 -0.0005454366 0.00016142383 0.00036541047
000230 e1 7b a4 39 ec f7 6c 38 f4 f1 52 39 fa d1 72 b9
       0.00031372815 5.649768e-05 0.00020117295 -0.00023157141
000240 22 a4 cd b9 77 2f 91 b9 92 49 2e b9 4b 89 aa b9
       -0.00039222935 -0.0002769192 -0.0001662134 -0.00032527218
000250 49 36 d5 b9 ff c3 c8 38 9c 26 78 39 3c bb 4c 39
       -0.00040666971 9.57325e-05 0.00023665506 0.00019524706
000260 2a 64 04 39 80 a5 9b b9 d0 1c 92 39 6b da dc 39
       0.00012625815 -0.0002968721 0.00027868757 0.00042124404
000270 3d 6d 59 b9 98 fc 88 39 07 d3 ba b9 1f 0a 17 39
       -0.00020735427 0.00026128138 -0.00035633912 0.00014404253
000280 83 51 e6 39 e0 97 a8 b7 f9 cd 72 b8 ad 8a b9 b9
       0.0004392975 -2.0097883e-05 -5.7889123e-05 -0.0003538927
000290 fb e2 89 39 76 27 f1 b9 f8 b1 c8 b7 fd 18 c8 39
       0.0002629979 -0.00045996503 -2.3924731e-05 0.0003816559
0002a0 38 24 3e b9 ab ca 0e 3a 4d 14 9c 39 33 a4 f6 b9
       -0.00018133305 0.000544707 0.00029769764 -0.00047043114
0002b0 08 f6 b3 39 e3 8a 4d b8 fa 80 9b b7 70 18 a0 b9
       0.00034324848 -4.9005157e-05 -1.85375e-05 -0.00030535785
0002c0 65 f9 f8 b8 b3 b2 03 ba 14 b8 c5 39 e9 b2 cb b8
       -0.00011872015 -0.00050238817 0.00037711917 -9.713119e-05
0002d0 4f 8b aa b9 22 0d 15 3a 16 c8 f6 39 6e 55 7f b9
       -0.0003252872 0.0005685856 0.00047069852 -0.0002435052
0002e0 4d 78 62 b9 97 e0 0b 3a 0e 38 f5 37 63 b1 82 b9
       -0.00021597855 0.00053358957 2.9232378e-05 -0.00024927696
0002f0 4b f2 a5 39 60 3d 00 3a e2 33 e2 b9 d6 83 18 36
       0.00031651775 0.0004891958 -0.00043144735 2.2726504e-06
000300 06 c9 83 39 32 c5 ac 38 66 45 1e 3a be 21 d1 b9
       0.0002513604 8.2383296e-05 0.0006037563 -0.00039888726
000310 0a 4b e5 37 f0 97 66 39 78 9e 02 3a 1e 21 ad b8
       2.733387e-05 0.0002199111 0.000498272 -8.2554514e-05
000320 a7 2c cb b9 fb c8 6d b9 43 9d f0 39 74 15 a2 39
       -0.00038752446 -0.00022676952 0.00045893536 0.00030915032
000330 f0 40 bb 39 ed 3b e2 b9 56 27 a2 39 c6 ab ec 39
       0.00035715802 -0.00043150727 0.00030928355 0.0004514141
000340 2f 3e 07 38 16 8a ea 39 da 3b 55 b8 82 97 7e b9
       3.224442e-05 0.0004473484 -5.08389e-05 -0.00024279769
000350 60 3b 15 3a f5 1f 67 b8 03 34 b3 b8 38 bc e9 39
       0.00056927465 -5.5104454e-05 -8.545073e-05 0.00044581457
000360 f6 ce 57 39 05 d4 96 b8 f3 04 ee 39 70 c4 bf 39
       0.00020581097 -7.192049e-05 0.00045398585 0.00036576716
000370 10 98 81 b9 ef 3b d1 b9 9c 75 03 ba 50 47 71 39
       -0.00024718093 -0.0003990824 -0.00050147786 0.00023010117
000380 01 27 98 39 0d 14 95 b9 05 d7 d2 39 6f f2 bf 39
       0.0002902076 -0.00028434434 0.00040214523 0.00036610986
000390 c4 cb 0a 39 90 0d b1 38 32 fd 80 b9 dd 81 d5 b9
       0.00013236614 8.442544e-05 -0.00024602708 -0.00040723282
0003a0 1b 73 b8 b9 ae 8a dc 39 e0 0b 96 b9 0b d6 fe b8
       -0.00035180975 0.00042064994 -0.00028619077 -0.000121515324
0003b0 9c 42 e3 38 11 6d 06 3a 22 64 18 b9 33 99 91 38
       0.000108366105 0.00051279465 -0.00014533152 6.9426744e-05
0003c0 e0 dc 61 39 e0 76 c0 39 7c 02 26 3a 75 6d 22 37
       0.00021539954 0.00036709663 0.00063327677 9.681437e-06
0003d0 66 b2 a1 39 25 ee b4 b9 42 51 88 39 ff 0a e7 b8
       0.0003084123 -0.00034509707 0.00026000483 -0.000110169865
0003e0 b0 3f ce b9 19 97 fe 39 7d 61 70 39 94 b4 28 ba
       -0.00039338833 0.00048559232 0.00022924501 -0.00064355996
0003f0 31 c4 dc 39 a6 f7 b4 b9 a0 18 c4 39 83 37 57 b9
       0.00042107844 -0.00034516788 0.0003740238 -0.00020524678

sequential/conv2d/BiasAdd/ReadVariableOp f4 [32]
000000 40 5f ab 3c 62 61 bc 3b a3 a5 83 3b 33 4f bc 3c
       0.020919442 0.0057489136 0.004017548 0.022986984
000010 94 71 e7 bb 56 bc 08 bb bd 14 39 3a 9a 4e 1c bd
       -0.0070631 -0.002086421 0.000706028 -0.038160898
000020 25 a0 96 bc 84 6a 6c bc 3e 41 03 bd da d6 f6 bc
       -0.01838691 -0.014429692 -0.03204464 -0.030131746
000030 bf 42 15 bc 72 d9 c3 bb d2 78 4a bc f3 7c 48 bc
       -0.009110152 -0.0059768492 -0.012357907 -0.012236821
000040 00 00 00 00 cf ce d5 3c 18 e5 8c 3c cb ae a6 3b
       0.0 0.02609959 0.017199084 0.005086755
000050 43 2f 89 bc 7d bb b4 3c 5e 50 d1 ba 68 98 22 bd
       -0.016746169 0.022062058 -0.0015969386 -0.039696127
000060 c7 57 5f bc a4 5c 00 bc 35 1c 7a 3c 69 46 5f 3c
       -0.013631768 -0.007834587 0.015265514 0.013627627
000070 81 8a 1f bc a8 aa 05 3c 93 88 04 bd 01 7a b3 3c
       -0.009737612 0.008158363 -0.03235681 0.021908762

sequential/conv2d_1/BiasAdd/ReadVariableOp f4 [32]
000000 e7 d5 bd bb 1f 5d ed ba 3a 8b 93 bc 8c 36 31 3c
       -0.0057933214 -0.0018109417 -0.018010724 0.010816228
000010 63 11 c7 bc 7f 68 6c 3c 3c 9a 50 3c 12 d2 bf 3c
       -0.024300283 0.014429211 0.012732085 0.023415599
000020 9e 62 88 bb e9 bc 01 3c ff 90 9e 3c 1b 8b 53 bb
       -0.0041621467 0.007918575 0.019356249 -0.0032278958
000030 27 c0 ad 3c eb e7 4c 3c da 9f b6 bb 4d df 31 bb
       0.02120979 0.012506465 -0.005573255 -0.0027141154
000040 4e 44 06 ba e5 94 28 bd bc 99 a7 3b 28 88 17 bb
       -0.00051218725 -0.041157622 0.005114762 -0.0023121927
000050 d0 d8 0f bd 5e 36 43 bc 00 00 00 00 c4 ec 13 bc
       -0.035118878 -0.011914818 0.0 -0.009028617
000060 50 50 9c bc 9c ba 99 bc 76 27 ae bb 52 49 ac ba
       -0.019081265 -0.01876574 -0.0053147627 -0.001314441
000070 43 c7 d8 bb 29 fc 01 bc 8a ed 8b bb 6a 71 cc bb
       -0.0066155507 -0.007933655 -0.00427026 -0.006239106

sequential/conv2d_2/BiasAdd/ReadVariableOp f4 [32]
000000 50 18 dd bc ad 03 c0 3c b1 00 8f 3c 3f 67 0a bc
       -0.026989132 0.023439253 0.017456384 -0.008447467
000010 72 54 5a 3c 9d 2f 37 3a fe 59 0d bb d8 31 2f 3c
       0.013325797 0.0006987991 -0.0021568532 0.010693036
000020 a0 a3 53 3c ad c9 d6 3b b6 77 72 bc 6e 1e 6b 3c
       0.012917429 0.0065548033 -0.014799049 0.014350517
000030 dd 29 d0 bb 96 69 a0 bc d7 4d 16 bc 1d 89 e5 bb
       -0.0063526467 -0.019581597 -0.009173832 -0.0070048706
000040 e5 c7 e4 3b 6b eb f0 bb ed 79 0a bc b2 9e 6c 3c
       0.006981837 -0.0073522828 -0.008451921 0.014442133
000050 06 b1 c4 bb 03 0c 2d bc bf e0 d9 bb 2d 9e 6d 3c
       -0.006002548 -0.010561946 -0.0066491063 0.014503044
000060 4a 78 1d bc d1 87 03 3c c4 ba be ba 34 27 8e 3b
       -0.009611199 0.008027987 -0.001455151 0.0043381695
000070 72 12 cb bc 82 09 73 3b 00 00 00 00 b5 94 d3 bb
       -0.024789069 0.0037084525 0.0 -0.0064569362

sequential/conv2d_1/Conv2D f4 [32, 3, 3, 32]
000000 e3 13 35 bd d4 83 66 3d b3 cc e3 3c 4e d1 b7 3d
       -0.04420842 0.056278065 0.02780757 0.089754686
000010 47 03 a9 3d db 32 65 3d 16 53 cb 3d a1 2f cc bb
       0.08252578 0.055956703 0.09927957 -0.0062312637
000020 df a4 84 3d f6 35 14 3d 80 ea a5 3d 35 e9 48 bd
       0.06476759 0.036184274 0.08101368 -0.04905053
000030 40 fc 44 bd 5c 8e b8 3d 55 69 8e 3d cf e3 c1 bd
       -0.048092127 0.09011528 0.06953684 -0.09467279
000040 78 a1 58 3d 84 16 ac bd 59 6d b6 bd a8 53 b1 3c
       0.052888364 -0.08402732 -0.08907575 0.021646336
000050 4f 0a 66 3d fe 8d c9 3d e9 fc f5 bd eb 2e e1 bd
       0.056162175 0.09841536 -0.120111294 -0.10995277
000060 6e 64 b2 3d 6a 4b ba 3c be 18 d8 3d cf 59 8c 3c
       0.08710562 0.022741038 0.10551594 0.017132668
000070 43 7c 3c 3d fe 34 a6 bd 51 b4 99 bd 58 04 79 3c
       0.046016943 -0.08115576 -0.07505096 0.01519879
000080 82 b7 9f 3d 93 3e 02 3d a7 de 8c bd d2 6f 04 3e
       0.07798673 0.031797957 -0.06878405 0.12933281
000090 6b 8d aa bd 49 ff b7 3d 5a db df 3d 40 52 84 bc
       -0.083277546 0.08984239 0.1093051 -0.016152501
0000a0 dc df 16 3c f4 ff 1a 3c 28 81 9c 3d d5 e0 70 3c
       0.009208646 0.009460438 0.07641822 0.014702042
0000b0 b1 2e 4a 3d 51 c4 82 bb 87 01 8d bd 47 f4 92 bd
       0.049360935 -0.003990688 -0.06885057 -0.071754985
0000c0 d0 b1 56 3d b6 af 06 3d 01 34 37 bd 33 33 8b bd
       0.05241567 0.032882415 -0.04472733 -0.06796875
0000d0 37 ae 7e bd cd 21 cf 3d 19 8a b4 bc 4b 3a a4 3d
       -0.062177863 0.10113869 -0.022038506 0.08018931
0000e0 87 b6 3f bc ce 64 75 3d 27 e5 13 3d 6c e8 f1 3d
       -0.011701233 0.059910588 0.03610721 0.11811909
0000f0 66 d0 c1 3c c8 e0 e4 bc b6 7d a6 3d f7 5a c4 bc
       0.023658942 -0.027939215 0.08129446 -0.023969157
000100 69 36 99 bd df 95 ca 3d a0 33 21 bc 7f 83 97 3b
       -0.07481081 0.09891867 -0.0098389685 0.00462383
000110 ac 7a 94 3d f5 ca 23 bd 8c 13 28 bc 19 9b 41 3d
       0.0724996 -0.039988477 -0.010258567 0.047267053
000120 09 fd 9d 3c b5 ae b0 3d eb d7 74 bd 10 bf fe bc
       0.019285696 0.08627073 -0.059776228 -0.031096965
000130 03 3d 42 3d 3f 03 95 bc 05 ee 93 bd 78 d1 03 3d
       0.047421467 -0.018190024 -0.07223133 0.032182187
000140 67 70 cb bd 2c f1 20 3d 39 11 ba bc ec c8 17 3d
       -0.099335484 0.0392925 -0.02271329 0.03705685
000150 66 0a b6 bd 79 8b ca bd 44 94 61 3d 97 46 02 3d
       -0.08888702 -0.098898835 0.055073038 0.0318056
000160 47 13 8b 3d e9 1e c3 bd 3b 4f 93 3b 9f 68 97 bc
       0.06790786 -0.0952738 0.004495529 -0.018482504
000170 e9 de 96 bc 3d 40 4f 3d 70 19 15 bd d0 8f 63 bd
       -0.018416839 0.05059837 -0.036401212 -0.055557072
000180 c2 24 cd 3c c5 07 a4 3d 6e 57 71 3d 00 ec 78 3a
       0.025041942 0.080092944 0.05892127 0.0009495616
000190 a7 c1 9d bc 1c 09 81 bc d1 13 be 3b 18 7a 47 bd
       -0.01925738 -0.015751414 0.005800702 -0.048700422
0001a0 4b 7c 84 3d d2 0d e7 bd c8 81 9f bc cc eb f5 bc
       0.064690195 -0.11281933 -0.019471064 -0.030019663
0001b0 fc a3 a8 3d 21 92 b4 3d e1 0f f1 3c f1 c6 b7 3c
       0.082344025 0.088169344 0.029426517 0.02243373
0001c0 20 02 71 3b 76 43 65 3d f5 23 53 3d 7b 83 0e 3d
       0.0036774948 0.05597254 0.051547963 0.03479336
0001d0 6e f5 07 3b a3 93 a7 3c 47 0f a7 3c 50 86 b3 bd
       0.0020745653 0.02045614 0.020393027 -0.087658525
0001e0 e0 f7 b3 bb 51 4e 02 3d 87 a0 34 3c f5 7d 71 3d
       -0.0054921955 0.03181297 0.011024601 0.058958013
0001f0 22 8b 0a 3d 2b 9b 18 bc cc 4f b6 bd ea 24 5b bd
       0.033824094 -0.009314339 -0.08901939 -0.053502
000200 1f 86 84 bc c2 4d 61 bd 3f 02 bb 3b d8 40 9a 3d
       -0.016177235 -0.055005796 0.005707055 0.07531899
000210 ac c5 b5 bd d9 11 b1 bd de d0 aa 3d 4b 02 84 bc
       -0.088755935 -0.08645982 0.083406195 -0.016114375
000220 4d 8e 07 bd 10 e7 cf bd dc ca 80 3c a8 f9 c7 bc
       -0.033094693 -0.101514935 0.01572173 -0.024411038
000230 2d 00 d6 bd 7d ad 0a 3d 69 b0 28 bd 00 dc 99 3d
       -0.10449252 0.033856858 -0.041183863 0.07512665
000240 fe a1 81 bd 8b d7 95 bd ed cf a7 bd b0 58 43 bd
       -0.06329726 -0.07316502 -0.081939556 -0.047692
000250 b3 c1 b4 3c 3e 8a c0 3c 1f 1a 8d 3d f4 7e 7b 3d
       0.02206502 0.023503419 0.06889748 0.06140037
000260 28 22 7b 3d aa 61 ae 3c 95 ed a8 3d 52 f8 81 3d
       0.06131187 0.021286804 0.0824844 0.063461915
000270 34 ff 35 bd 1f 9a 80 3c 57 5e e8 bc bc b6 dc bd
       -0.044432834 0.01569849 -0.028365297 -0.10777041
000280 54 5d 9f 3d 9e ae 55 3d 46 81 bf bc c1 10 6f 3c
       0.07781473 0.05216848 -0.023377072 0.014591397
000290 5e 62 9f bb 0a 79 7f 3d 8d 6b 8e 3d db 3e 84 bd
       -0.004864021 0.06237129 0.069541074 -0.06457301
0002a0 cc 3c af 3c b9 77 4e 3d 9c cc bf bd 92 8e 8b bc
       0.021391295 0.050407145 -0.09365198 -0.017035756
0002b0 a6 33 8d bc 34 35 85 3d 78 2a 89 3d 45 0d 29 bc
       -0.017236542 0.06504288 0.066975534 -0.010318105
0002c0 9c dc 63 3d 2f 53 bd 3d f1 97 17 bc 93 ee d6 bd
       0.05563031 0.09244382 -0.009252534 -0.10494723
0002d0 b3 8f 61 3c 8b 6d 81 3d fd ec 86 bc 72 02 7d 3d
       0.013767171 0.06319722 -0.016470427 0.06176991
0002e0 fb f6 58 3d 5e 1d b3 3d 97 54 06 3d fb 75 22 bd
       0.052969914 0.08745836 0.032795515 -0.039663296
0002f0 30 18 39 3d f8 17 52 3d da 36 72 3b 78 3c 14 3d
       0.045189083 0.05129239 0.0036958964 0.03619048
000300 8f e8 29 3d fa 95 8f bc ee 20 0f 3d 29 81 08 3e
       0.04148155 -0.01752757 0.034943514 0.1333052
000310 14 d8 67 bc eb a6 14 bb b7 c5 aa 3d 1b 31 0b 3d
       -0.014150638 -0.0022682499 0.08338492 0.033982377
000320 7d 34 8a bd 78 52 f3 bd f6 10 ef bc 61 90 d1 3a
       -0.067482926 -0.11880964 -0.029182892 0.0015988463
000330 99 63 c8 bd 05 c6 c2 3d ca f7 a5 bd 1a f4 ee bc
       -0.09784622 0.095104255 -0.08103903 -0.029169131
000340 78 54 4b bc ee ed 9c 3d 99 10 cc 3d 65 73 a9 bb
       -0.012410276 0.07662569 0.09964103 -0.005171227
000350 e4 cd 70 3c 26 fa dd 3d 54 44 bf bd b2 c8 da bd
       0.014697526 0.10838728 -0.093392044 -0.10682811
000360 3a 36 08 bd b2 61 8d bc b5 f8 e4 3d f3 b7 d1 3d
       -0.03325484 -0.017258499 0.111802496 0.10240164
000370 4c 69 e7 bc 15 3d c7 bd 25 92 5d 3c 9e 49 55 3d
       -0.028248452 -0.09728447 0.013523613 0.05207216
000380 c6 16 c2 3d 41 db a6 3d ee 37 25 bb af b4 1d bc
       0.09477 0.08147288 -0.0025210339 -0.009625598
000390 52 db 2b bd 7b 78 34 3d 71 a1 0d bd 7b 4c c5 bd
       -0.041957207 0.04406021 -0.03457779 -0.09633728
0003a0 e3 9d 5d 3d 4b d8 86 3d 90 0a b8 3d 3c af 68 bd
       0.05410565 0.06584223 0.0898639 -0.05680774
0003b0 89 56 5e 3d ac c8 29 3d b9 ea 9d bd 8b fa 32 bc
       0.054281745 0.04145114 -0.077107854 -0.010923992
0003c0 e0 62 79 3c 37 73 b6 3d 06 5f 94 bd 5a 22 4b 3d
       0.015221328 0.08908694 -0.07244687 0.049593307
0003d0 4e 90 b1 bc b0 1a a1 bb 69 0b ce bd 86 03 24 bd
       -0.021675255 -0.0049165115 -0.1006077 -0.040042423
0003e0 f2 08 83 3c 1f 01 ff bc c3 e1 c6 3d e1 29 a6 bb
       0.015995476 -0.031128464 0.097110294 -0.0050709103
0003f0 40 9b bc 3d 8e 9a 72 3c d6 60 b3 bc 19 bc 67 ba
       0.09209299 0.0148073565 -0.02189676 -0.00088399794

sequential/conv2d_2/Conv2D f4 [32, 3, 3, 32]
000000 db 43 49 3d ec d7 3e bd 4f 02 47 bd e3 ac 5d bb
       0.049136978 -0.046592638 -0.048586186 -0.0033824972
000010 9f ad 5b 3c 55 1a fe bc 14 6e 13 be 1e 56 73 bd
       0.013408094 -0.031018415 -0.1439746 -0.0594083
000020 a4 8b c9 bc 3b b1 b6 bc bf e7 1f bc 77 e2 3b bd
       -0.024602719 -0.022301307 -0.009759842 -0.04587027
000030 02 57 11 3d d6 a0 80 bd 9d 19 a3 3d 8d 6c 9f 3c
       0.035483368 -0.06280677 0.0796387 0.01946094
000040 47 ff 08 bd 85 c7 d1 bc a8 54 22 3d 88 e2 a2 3c
       -0.033446576 -0.025607834 0.039631516 0.01988341
000050 e7 87 cf bc e0 db a5 3d dc 7a 38 3d f1 66 bb 3c
       -0.025333358 0.080985785 0.045039043 0.022876235
000060 04 6f 98 bd eb 09 95 3d 7c 31 a8 bc 20 2a 24 3d
       -0.074430496 0.07277282 -0.020531408 0.040079236
000070 d0 fb bb bd 10 84 10 3c ee fd 0e ba 9b 8f ea bc
       -0.09178889 0.008820549 -0.00054547086 -0.02863293
000080 4a 37 5c 3d 73 d4 2c 3c 58 23 ee 3d da 3c 17 3c
       0.053763665 0.010548699 0.11627835 0.009230817
000090 16 cd c8 3d 2f f2 27 bd b8 65 1b be 9a 9c b6 bd
       0.09804742 -0.04100245 -0.15175521 -0.08916588
0000a0 a0 3d c7 bd eb 0c c1 3d ed 7a d0 bd 45 3d 1e bc
       -0.09728551 0.09426292 -0.10179696 -0.0096581625
0000b0 3b f4 84 bd f4 41 06 3b 2f 6a 3c 3d d5 75 c8 3d
       -0.06491896 0.0020486088 0.045999702 0.097881
0000c0 13 84 89 3c 8a ae 99 3d be a1 f1 3c cd 86 94 3d
       0.01678661 0.07503994 0.02949607 0.07252274
0000d0 ba 0a 55 bc af 23 49 3d bc 04 c3 bc bb 61 db 3d
       -0.013003046 0.049106296 -0.023805968 0.10712
0000e0 5a 36 80 3d e5 39 a0 3d 00 7c 9b 3c f5 8f 6f 3d
       0.06260367 0.078235425 0.018980026 0.058486897
0000f0 1f 38 cb bd aa a5 3a bd 53 ff a8 bd c0 f1 ba bd
       -0.099228136 -0.045568146 -0.08251824 -0.091281414
000100 78 f4 f3 bc 32 bb bd 3d b8 86 b0 bd 82 48 c3 bc
       -0.029779658 0.0926422 -0.086194456 -0.023838285
000110 15 54 04 3c 8b e2 df 3c a1 6c 1f bd dc 8e 5f bd
       0.008076687 0.027329704 -0.038921956 -0.0545796
000120 01 9d 7a 3c e6 7c 0e 3e f9 fb 38 bc 7b da 47 3c
       0.015296222 0.13914832 -0.011290544 0.012198086
000130 ff 3b da bd b1 a3 77 bd 7e 32 97 3d 9d 2b 2c bd
       -0.106559746 -0.060458843 0.073826775 -0.04203378
000140 7a 6c 31 bd 3a 44 84 3d 18 87 24 3d 18 70 ec bd
       -0.043316342 0.06458326 0.040167898 -0.11544818
000150 d0 18 a8 3d 99 09 13 3e 42 7f 3b bd 3d 0d 81 bd
       0.082078576 0.1435913 -0.04577566 -0.06301353
000160 ec 68 b1 3d 64 67 db bb d8 e7 35 3d 55 6b 49 bc
       0.086625904 -0.0066956747 0.044410557 -0.012293656
000170 33 8d a7 bd 40 01 e9 ba 45 1e 8f bb 87 80 c9 3d
       -0.081812285 -0.0017776862 -0.004367622 0.09838968
000180 53 a5 c2 3d ac 18 57 bd ab c3 7a bb b8 e3 b6 3c
       0.09504189 -0.052513763 -0.00382636 0.022325382
000190 69 0a 9f bb da 86 f8 3b a9 95 f7 bd 49 82 d8 bc
       -0.004853536 0.007584435 -0.12089092 -0.026429312
0001a0 00 88 88 bd f5 1f 82 3d 89 6b f9 bd fc c8 52 bd
       -0.06666565 0.063537516 -0.12178714 -0.051461205
0001b0 2d 17 fa 3b 2e ba 23 be f4 85 07 bd 3e 2c 07 3d
       0.0076321573 -0.1598899 -0.033086732 0.033001177
0001c0 c5 34 8a bd 4d f9 59 3b 5d e3 ba 3d f6 5e b3 3d
       -0.06748346 0.0033260167 0.09125397 0.08758347
0001d0 bb 41 f6 3d 07 76 6c bc e7 77 c7 bd 59 a8 d3 3c
       0.12024256 -0.014432437 -0.097396664 0.02583711
0001e0 aa cc c0 bc 74 f6 c1 3d 18 4d 4c bc 0a 28 d8 3d
       -0.023535091 0.09470835 -0.012469552 0.10554512
0001f0 6d 0f 9c bc 52 96 74 bd a8 06 90 3c 30 e4 ea bc
       -0.019050324 -0.05971367 0.017581299 -0.028673261
000200 ae 81 fc 3c c2 31 c4 3d 3b 0a ef 3d 7e 83 e7 3d
       0.030823555 0.09579803 0.11671873 0.11304377
000210 b6 c2 12 bd 82 45 d5 bd ea 2c d3 bd 90 c8 6f bd
       -0.035830222 -0.10413648 -0.10311301 -0.05854088
000220 60 dd 24 3d e5 fd ca 3d 06 df 09 be 34 3c 00 3e
       0.040250182 0.09911708 -0.13463983 0.12522966
000230 ce 7c bd 3d 06 ca 23 bc 53 05 e4 ba b2 7f ee 3c
       0.0925232 -0.009996897 -0.0017396606 0.029113624
000240 b6 d0 9d bb b6 36 9e bd e8 d6 e1 3c 58 29 2d bd
       -0.00481614 -0.07725279 0.027568296 -0.042275757
000250 2b 2e fb ba ae 39 87 bc 34 55 8d bc 74 11 55 3c
       -0.0019163539 -0.016506996 -0.017252542 0.013004649
000260 11 7c 15 3d fa 71 90 bd 38 45 dd bc 3b 33 dd 3d
       0.036495272 -0.07052989 -0.027010545 0.10800787
000270 65 de cf bd 18 9b 45 bd 88 11 cd bd c2 2b f9 bc
       -0.1014984 -0.048243612 -0.100131094 -0.030416373
000280 4e 39 ba 3d bd 47 7f 3d 60 55 23 bd e2 0f 29 bc
       0.09092961 0.062324274 -0.03987634 -0.010318728
000290 b3 ee 51 bd 53 3a bb 3d ef 2f fa bd b9 07 da bd
       -0.051253032 0.09141984 -0.12216174 -0.10646004
0002a0 5e 2b a7 3d 70 0e 6b 3d ea 50 ee bc ff b5 47 3d
       0.081625685 0.057386816 -0.029091317 0.04875755
0002b0 36 87 83 3c 28 a9 1d be 0e d1 64 bd 62 5a ee 3d
       0.016055685 -0.15396559 -0.055863433 0.11638333
0002c0 b4 cc c5 bd a2 5f 5a 3d d6 e5 9f 3d f4 28 1d 3d
       -0.09658185 0.05331386 0.078075096 0.038369134
0002d0 49 f0 b6 3c 87 a8 3f bd b8 25 52 3d 44 eb 8a 3c
       0.022331374 -0.04679158 0.051305503 0.016957887
0002e0 a1 71 19 bd 58 24 64 3d 58 82 01 3c 0a 09 69 3d
       -0.03746188 0.055698723 0.0079046115 0.056893386
0002f0 65 0f 85 bd d4 af 89 bd 5e a7 b3 bd 0e 2d 70 bd
       -0.06497077 -0.0672299 -0.08772157 -0.058636717
000300 fa c6 9d 3d 1a 78 62 3c 00 12 45 ba cb eb f6 3d
       0.077039674 0.01382258 -0.0007517636 0.12056693
000310 b8 ce 2e 3d 8b 63 c7 3d cc 9c d7 3c 93 ca b0 3c
       0.04267761 0.09735783 0.026319884 0.02158097
000320 35 f4 65 3c ad d3 a3 3d ec 21 31 bd 26 ff 4f 3c
       0.014035274 0.07999358 -0.04324524 0.0126951095
000330 ab 85 27 3d d4 91 12 be 8d cd 38 39 fd 2e 7f bd
       0.04089896 -0.14313442 0.00017624181 -0.06230067
000340 80 04 92 bd d0 f2 99 3d ef 6e 81 3d 54 c9 fd 3c
       -0.071297646 0.07517016 0.06319987 0.03097979
000350 77 9d d4 bb 8f db a8 3d 20 e6 d0 bc 6e 79 07 bd
       -0.006488498 0.082450025 -0.025500357 -0.03307479
000360 6d d0 9b 3d b5 09 09 bd ce 49 3a bd d1 4a 0a bd
       0.076081134 -0.033456523 -0.045480542 -0.033762757
000370 89 af 0f 3a 18 b4 5e bc 8b 6a d1 bd 64 74 be 3d
       0.0005481174 -0.013592742 -0.102253996 0.092995435
000380 41 f6 44 bd b0 5e d2 3d 02 3f 65 3d 0f e0 81 bc
       -0.04808641 0.102719665 0.055968292 -0.01585391
000390 84 ac ff 3c 8f 0f 02 bd 7d e2 50 bd c8 3a 2d be
       0.031210192 -0.03175312 -0.050997246 -0.16916955
0003a0 0f ff e2 bc 88 e2 00 3e a4 44 8e bd 90 8a 06 3d
       -0.027709512 0.12586415 -0.06946686 0.032846987
0003b0 06 8d 8b 3d b6 a9 c5 bd f4 2f 47 3d a3 bc 04 bd
       0.068140075 -0.096515104 0.048629716 -0.03240646
0003c0 4b b5 a9 bd bc 5f ac 3d 68 57 fd bb 9a b2 86 3c
       -0.08286532 0.084166974 -0.007731367 0.016442586
0003d0 c1 e8 a0 bd 22 c4 80 bd 70 0b 10 bd fc 28 a9 bb
       -0.07856894 -0.06287409 -0.035167158 -0.0051623564
0003e0 cd f0 28 3c f4 d3 93 bd 30 b7 11 3c a2 fb c9 bc
       0.010311318 -0.07218161 0.008893773 -0.02465612
0003f0 32 76 d0 bd 7e a3 71 bd b7 13 ab 3b 02 7c 1c bd
       -0.10178794 -0.05899381 0.005220856 -0.0382042

sequential/dense/BiasAdd/ReadVariableOp f4 [128]
000000 ad 6a a7 bb b4 db 4f 3b 30 6c 28 bb 00 00 00 00
       -0.0051091523 0.0031716647 -0.002569925 0.0
000010 93 e7 04 bc f0 f4 63 ba bf 26 31 3c 90 7c 09 bc
       -0.008111852 -0.00086958613 0.01081246 -0.008391514
000020 f3 87 53 3c cc c3 17 3c 10 8c 3c 3c fa a6 89 ba
       0.012910831 0.00926299 0.011508003 -0.0010502033
000030 fb 2a 75 bc 49 6d 85 bb 00 00 00 00 00 00 00 00
       -0.014963861 -0.0040718657 0.0 0.0
000040 18 b2 7d bc 40 26 5b 3b 37 49 98 bb 65 fd 1c bc
       -0.015484355 0.0033439547 -0.0046473998 -0.009581898
000050 41 c2 c4 bb 7c e7 76 3c 68 ba 7c 3c 0a a5 cb 3c
       -0.006004602 0.015069839 0.015425302 0.02485897
000060 76 1d ec 3b 25 e0 75 bc 4c 51 f0 bb 83 8d 23 bc
       0.0072056605 -0.0150070535 -0.00733391 -0.0099824695
000070 bf 5e f0 3b 79 c5 18 3a a7 78 80 bc 84 5f 09 3c
       0.0073355134 0.00058277656 -0.015682532 0.008384589
000080 84 44 1f bc 48 4c 96 bb 00 00 00 00 0d 7b 60 bc
       -0.009720925 -0.00458673 0.0 -0.013701213
000090 be da 07 bc fe 1d d8 3b af 9b 5a bc 84 38 d5 3c
       -0.008291898 0.006595372 -0.013342782 0.026027925
0000a0 bb 7a b3 bb 6e b4 2b bc a0 87 42 bc 7c ad 22 bc
       -0.005477277 -0.0104800295 -0.011873156 -0.009929057
0000b0 07 b2 8c 3c 4c 0c 84 bc 99 a6 af 3b 0c 4d 19 38
       0.017174734 -0.016119145 0.005360436 3.6549798e-05
0000c0 6f 7f fe ba 72 74 07 bc 72 e7 d4 bb bf 9e 76 3b
       -0.001941664 -0.008267509 -0.006497317 0.003763124
0000d0 23 8e 1c bc d4 af d0 3b 20 3e aa 3a f7 66 64 bb
       -0.009555372 0.0063686166 0.0012988485 -0.003485141
0000e0 44 36 11 bb 3f 50 81 bc bf 1f 66 3c e0 f4 39 bc
       -0.002215759 -0.015785335 0.014045655 -0.011349887
0000f0 e2 9c 05 3a ac 34 0a 3d 1e b7 10 3b 4b e9 84 bb
       0.0005096925 0.033741638 0.0022081803 -0.004056131
000100 b7 63 7c bc 15 00 8f 3c ed 64 84 3c 2f 14 a3 bb
       -0.015404633 0.017456094 0.016161406 -0.0049767713
000110 37 0e 7a ba 95 1c 28 3c 03 1c c4 bb df da 4f bc
       -0.00095388613 0.010260721 -0.0059847846 -0.01268646
000120 00 00 00 00 0e e8 01 bc e8 89 09 bc 69 03 b1 3a
       0.0 -0.007928861 -0.008394696 0.0013505045
000130 ab 5e 42 3c 7f b5 91 3b a4 0a 87 bc 2c af c4 3c
       0.011863391 0.004446685 -0.016484566 0.02400931
000140 a1 9f a9 3a f8 6b 49 3c c7 f2 0f bc db be 45 bc
       0.001294125 0.012293808 -0.00878591 -0.012069429
000150 80 f2 88 3c c7 c1 01 bc 7d e4 6d 3c 52 35 69 3b
       0.016717196 -0.007919735 0.014519808 0.003558476
000160 dc 4a 5e bc 3e bc 0e 3c 00 d8 25 3a b7 88 48 3c
       -0.013567653 0.008711873 0.0006326437 0.012239627
000170 5e b6 06 bc 7a 53 14 3c c7 16 72 bc 00 00 00 00
       -0.008222191 0.0090531055 -0.014775938 0.0
000180 00 00 00 00 63 79 c7 bb 45 bc 0f ba b6 7e 28 3c
       0.0 -0.0060874685 -0.00054830714 0.0102841165
000190 ad 4d 0f bc d6 f3 0f bc 2d bc 3b bc aa 03 79 3c
       -0.008746547 -0.008786162 -0.011458439 0.0151986275
0001a0 7f fb 5a 3b d8 f1 56 bc 8a 84 92 3c db 98 82 3c
       0.0033414064 -0.0131191835 0.017885465 0.015942028
0001b0 fe 8c 99 3c ed 82 60 bb d6 68 14 bb 41 21 3c 3c
       0.018743988 -0.0034257725 -0.0022645495 0.011482538
0001c0 c3 3f 76 3c 1a 52 55 bc 00 00 00 00 9e 03 e4 38
       0.01502985 -0.013020063 0.0 0.00010872561
0001d0 a5 5a ad 3c 00 04 b6 bb fc 24 42 bc 6b 6e 9d 3b
       0.021161387 -0.005554676 -0.011849638 0.0048044226
0001e0 64 c6 9e 3c 00 00 00 00 94 af 31 3c 0f e1 99 3b
       0.01938171 0.0 0.010845084 0.0046960185
0001f0 71 26 91 bb 84 15 2c 3c 19 d7 40 bb 3e ef 8c 39
       -0.0044296314 0.010503177 -0.0029425083 0.0002688113

sequential/dense_1/BiasAdd/ReadVariableOp f4 [3]
000000 77 40 84 3c b8 cc b8 bb 96 7b fc bb
       0.01614402 -0.0056396388 -0.0077051623

sequential/dense/MatMul f4 [128, 128]
000000 6b 04 87 bc 94 11 e6 3d 7d c8 84 bd c0 b3 92 bd
       -0.016481599 0.112338215 -0.064835526 -0.07163191
000010 1a ba 52 bd 4a 15 00 3e e8 30 1b be a3 9c b8 bd
       -0.05144701 0.12508121 -0.15155375 -0.09014251
000020 ab a5 df bd ee 3a ef 3c 5c 52 1b bd c9 b5 a9 ba
       -0.109202705 0.029202905 -0.03792034 -0.0012947853
000030 4e fc 9c 3d 54 d7 73 3d 75 d1 10 3e 1a 58 0e be
       0.07665311 0.059531525 0.14142402 -0.13900796
000040 65 9a b9 3d da 1a 74 bd af 52 12 3e 2a f9 04 be
       0.090626515 -0.05959592 0.14289354 -0.12985674
000050 00 80 c9 37 36 67 84 bd 56 9a a4 bd 7b e3 82 bd
       2.4020672e-05 -0.064649984 -0.0803725 -0.06391045
000060 12 0d ba bc 8b f6 17 be 64 07 34 3d 3f f4 bc bd
       -0.02271131 -0.14840142 0.04395236 -0.09226274
000070 19 59 cc bd 82 35 63 bd a2 68 82 3d 70 5e 64 bc
       -0.099779315 -0.05547095 0.063676134 -0.013938531
000080 8d 91 96 bc 7e 12 06 3d c0 ad b5 bb 70 95 5e bc
       -0.01837995 0.03273248 -0.0055443943 -0.013585433
000090 1c 9b 0b bd 5a 9b 08 be e1 d2 98 bc 2b ec 09 3e
       -0.03408347 -0.13340512 -0.018655242 0.13468997
0000a0 9a 05 01 be a8 ac 15 be 7d 30 79 3d 0d 4a 38 bd
       -0.12599793 -0.14616644 0.060837258 -0.044992495
0000b0 28 ac 53 3d 68 32 a4 3c 28 bf 8c 3d fd 75 ee bd
       0.051677853 0.020043567 0.06872398 -0.11643598
0000c0 6e 0b f2 bc 48 0f d6 bd 00 74 0f 39 cc 55 22 3d
       -0.029546466 -0.104521334 0.00013680756 0.039632604
0000d0 f8 17 04 bd 16 0f c8 3d de f5 f7 bd 7c 75 4f 3d
       -0.03224942 0.097685024 -0.12107442 0.05064915
0000e0 57 39 23 bd 5d 61 e6 3d 8e c9 4c bd cf f6 04 3e
       -0.039849605 0.11249039 -0.049996905 0.12984775
0000f0 e3 06 0b 3e 90 b0 0b 3c 6c c8 4a 3d 3a 65 bc 3d
       0.13576846 0.0085259825 0.049507543 0.09198995
000100 af 6c a2 3d 39 9f 00 3e 44 55 c7 bd 8a a0 d7 3d
       0.07930886 0.12560739 -0.0973306 0.10528667
000110 58 06 8b 3d 19 33 cd 3d e2 12 6b bd aa cc da 3d
       0.06788319 0.10019512 -0.057391055 0.10683568
000120 48 e7 94 bd 58 3c 59 bd 42 64 43 bc 8c 09 3c 3b
       -0.07270676 -0.053036064 -0.011925759 0.0028692214
000130 06 48 d2 3d 3e 9f f7 3d dc 66 36 3d 3e 18 f7 3d
       0.10267644 0.1209092 0.044531688 0.12065171
000140 1f 8b bf bd 70 52 8c 3d e0 77 ab 3d 3a 9d 98 3d
       -0.09352707 0.06851661 0.08372474 0.074518636
000150 37 78 06 3e ae b1 14 3e 4a e6 4c bd 62 de 35 3d
       0.13131796 0.14520904 -0.05002431 0.044401534
000160 c1 d7 fe bd 79 62 de 3c 39 a3 0e bc 8c 32 dd bc
       -0.124434955 0.027146565 -0.0087059075 -0.027001642
000170 e3 53 16 be 5b f4 13 3e 60 4f 9f bb c0 7d fa 3b
       -0.14680438 0.14448683 -0.004861757 0.007644385
000180 99 b0 91 bb 6e 5e 0b 3e e8 a8 91 3d c9 fb 09 3e
       -0.004446101 0.13610241 0.071122944 0.13474955
000190 16 c3 10 be 23 ac 0d be 5a 8b de bc 56 a9 ea bd
       -0.1413692 -0.13835196 -0.027166057 -0.114580795
0001a0 4a 02 7a 3d f1 25 e1 3d a2 66 ab bd a2 b1 fe 3d
       0.06103734 0.10993565 -0.08369185 0.124362245
0001b0 87 37 a9 bc 05 67 0f 3e 0b 29 18 3e f6 db a6 3d
       -0.02065636 0.14004143 0.14859407 0.08147423
0001c0 a9 7a 11 be 74 17 7d 3d ea 94 66 bd 40 8e 9a 3b
       -0.14206947 0.061789945 -0.05629436 0.0047166646
0001d0 d0 31 f4 bc a5 46 c6 3c c4 9a 21 3e d9 2f 3b 3d
       -0.029808909 0.024203608 0.15781695 0.045699928
0001e0 cd b0 c6 3d 31 db da 3d be 40 fa bc fc 28 1e be
       0.09701691 0.10686339 -0.03054845 -0.15445322
0001f0 9e 52 1d be 6e 8e 07 be 16 ba 8e 3d 62 f1 ff bd
       -0.15363547 -0.13237926 0.06969087 -0.12497212
000200 02 1b e2 3c 07 3c 13 3e 19 c9 e4 bd 54 87 0d bd
       0.027600769 0.14378367 -0.11171169 -0.034552887
000210 7f ae ea 3d 1a 0a 04 3e dd a2 16 3d e5 60 90 3d
       0.11459064 0.12894478 0.036776412 0.07049731
000220 55 21 72 3d 8d 31 c4 bd 77 04 ee 3c 00 59 0e be
       0.05911382 -0.095797636 0.029054863 -0.13901138
000230 34 f5 17 be c1 5f 3a bd 92 64 fd 3d bc ba e9 bd
       -0.14839631 -0.045501474 0.12372698 -0.1141257
000240 ca 68 7f bd cc f4 9e 3d 8b 35 ab bd 9a 1d 49 be
       -0.062355794 0.07761535 -0.08359822 -0.19640198
000250 f8 83 6e 3d ae e3 a4 3d 2c 77 98 3b 02 5b 1f 3e
       0.058231324 0.08051239 0.0046528783 0.1556206
000260 dc aa 99 bc dd d2 df 3d 01 ba f6 3d d6 8f 0c 3e
       -0.01875823 0.10928891 0.12047196 0.13726744
000270 63 74 3a 3d c4 89 79 bd 80 9f f0 bb 1c 74 2c bd
       0.04552115 -0.0609224 -0.0073432326 -0.042102918
000280 10 1c d5 bd 82 cf 09 be bf 08 ca 3d 87 f8 c6 3d
       -0.10405743 -0.13458064 0.098649494 0.097153716
000290 ec df 27 3c e1 92 c0 3d 09 75 92 bd 4d 3c ef 3d
       0.010246258 0.09403015 -0.07151229 0.11681423
0002a0 f0 f4 81 bc 81 07 36 3e 83 2e c6 bd 94 92 2c bd
       -0.015863866 0.177763 -0.0967684 -0.042131975
0002b0 c2 1e 87 bd 14 cd d9 bd ae 48 f6 bd 5b 99 1f be
       -0.065976635 -0.10634819 -0.12025581 -0.15585844
0002c0 39 0e 20 3e 00 d7 b9 3a 30 5f 33 3c e7 ab 93 3d
       0.15630426 0.0014178455 0.010947987 0.07210522
0002d0 4c e9 59 3d 49 86 c8 bc 75 0b 53 bd 48 6d 1d 3d
       0.053201005 -0.024478095 -0.0515246 0.038434297
0002e0 07 07 ae 3c 13 2b 78 bb 9a 37 24 3e e7 da 90 3d
       0.021243585 -0.003786747 0.16036835 0.07073002
0002f0 62 f3 bf bc 59 d3 ee bc 25 40 15 3e f4 d8 98 3d
       -0.023431484 -0.029153513 0.1457525 0.074632555
000300 f9 b6 e5 3c d1 f4 e5 bc 8c cc cd 3d c6 e5 6e bd
       0.02804135 -0.02807084 0.1004878 -0.058324598
000310 28 99 ee 3d 0e c5 07 3e 2d f0 60 bc 54 3c a5 bd
       0.11650306 0.13258764 -0.013729137 -0.08068147
000320 69 a4 ee bd 35 a2 18 bd 11 af 1b 3e 7b 5b f5 bd
       -0.116524525 -0.037264068 0.15203501 -0.11980339
000330 3c 0e 05 be 0a e6 ca bc 4b 60 1b 3e 7e 0b c7 3d
       -0.12993711 -0.024767894 0.15173452 0.09718989
000340 02 ef 5a 3d 00 ab 98 bc c2 29 f8 bd 6f b5 15 bd
       0.05345059 -0.018636227 -0.1211734 -0.03654998
000350 06 1f b3 3d 81 13 e1 bc a0 ac 08 be 60 14 4f bd
       0.087461516 -0.02747512 -0.13347101 -0.05055654
000360 86 db 48 bd 21 c1 f6 bd b8 21 6a bd 52 75 18 3e
       -0.04903748 -0.12048555 -0.057161063 0.14888504
000370 d5 ee 80 bc c7 b1 ac bc 32 91 98 3d 18 13 cd bd
       -0.015738884 -0.021080865 0.07449569 -0.100134075
000380 5c 83 bd bc 64 1c 68 39 77 05 05 be 06 5e 3f 3d
       -0.023133926 0.0002213582 -0.12990366 0.046720527
000390 33 19 10 3e fc 79 77 bd b4 dd f3 3c 7f ed 08 3d
       0.14072113 -0.060419068 0.029768802 0.03342962
0003a0 bd 64 f6 3c a4 b9 a8 3c 9c 0e 8b bd df ee dc bd
       0.030077333 0.020596333 -0.06789896 -0.107877485
0003b0 26 40 c2 3d e7 13 3d bd fa 6a d8 3d 84 b6 2a 3d
       0.094848916 -0.04616156 0.10567279 0.041677967
0003c0 2d b1 c1 3d d1 69 df bd 46 09 cd 3d 4d 04 3e be
       0.09457622 -0.10908855 0.100115344 -0.18556328
0003d0 64 c9 57 bd 69 a9 91 bd 89 4a 11 be 83 5b 03 3e
       -0.052682295 -0.071123905 -0.14188589 0.12827878
0003e0 bc 00 2f 3d ea f4 89 bd 4c 72 c2 bd d4 9a 95 bd
       0.04272531 -0.06736167 -0.09494457 -0.07304922
0003f0 ab dd ad 3d 5c e3 9c bd ea c8 ba bd cb e1 da bd
       0.084895454 -0.07660553 -0.091203526 -0.10687598

sequential/dense_1/MatMul f4 [3, 128]
000000 c5 f6 01 be 4a 2f 50 be 7f 9c cc bd 1d 69 0a 3e
       -0.12691791 -0.2033054 -0.09990787 0.1351666
000010 7d 0a f9 3d 20 e6 a6 bd 54 3a 56 3e bd f9 0a be
       0.121602036 -0.081493616 0.20920688 -0.1357183
000020 2c 3b 3e 3e 51 0f 67 3e aa 9f a2 bd 97 0c 8a bd
       0.1857726 0.22564436 -0.0794061 -0.067406826
000030 2d ca 82 be 28 f3 a4 bd 21 93 45 3e 61 fe 37 3e
       -0.25544873 -0.08054191 0.19294406 0.17968132
000040 11 20 7b be ed f5 6f be ba 20 02 3e a9 86 32 3a
       -0.24523951 -0.23433657 0.12707797 0.0006810227
000050 af 90 50 be 41 40 7f 3c 00 13 d4 3d c9 74 87 bc
       -0.20367692 0.015579284 0.103551865 -0.01653518
000060 d9 15 5d 3e c1 61 08 be 8a ef 6b 3c 40 b7 07 be
       0.21590365 -0.1331854 0.014400372 -0.13253498
000070 e0 10 01 bd d8 5a 50 be 15 a5 fd bd 71 08 3d 3e
       -0.031510234 -0.20347154 -0.123850025 0.18460251
000080 93 fd 94 bc c4 7d b0 bd c2 6d dd 3d 6c fd 07 3d
       -0.01818732 -0.08617738 0.1081195 0.033200666
000090 79 5e 25 3e f7 f8 ac 3d ea 4b 03 be 52 e9 52 3e
       0.1614932 0.08445924 -0.12821928 0.20596817
0000a0 22 3b c2 3b c6 98 51 be ac 4a 24 3e 52 8b e4 bd
       0.0059274593 -0.20468435 0.1604411 -0.11159386
0000b0 c8 55 db 3c af 24 f3 bd c8 44 c5 3c b0 5e df bd
       0.026774302 -0.11872231 0.024080649 -0.10906732
0000c0 b9 00 c0 bd 74 43 1c be fb 67 4c be fb 71 3f bd
       -0.09375138 -0.15260106 -0.1996154 -0.04673956
0000d0 21 8b cd bd 93 75 37 3c ce 87 6d be cc 9a 54 3e
       -0.10036302 0.0111974655 -0.23196337 0.20762175
0000e0 2d 7e 24 be 12 18 2c bd 13 15 d7 3d a1 05 0c be
       -0.16063757 -0.042015143 0.105020665 -0.13674022
0000f0 a3 6b d6 3d b1 19 3e 3e 4f 37 83 bb 71 bf e6 bd
       0.10469749 0.18564488 -0.004004396 -0.11266983
000100 2e 52 8c bd 5a 0e a0 3d 64 76 04 3e 81 79 ac bd
       -0.06851612 0.07815237 0.12935787 -0.084216125
000110 d6 5c 1a 3e ed 73 0c 3c 73 8e 1b bd 62 24 38 bc
       0.15074477 0.008572561 -0.037977647 -0.011239143
000120 94 32 92 bd 37 48 0b 3d b8 ee e9 bd e1 de 19 be
       -0.07138553 0.034004416 -0.11422485 -0.15026428
000130 c0 48 6b bd 54 9e 7f 3d 2c cf b1 bd b0 e3 b0 3c
       -0.057442427 0.062406853 -0.08682093 0.021592945
000140 54 ae 61 be 24 39 ec bd a0 08 ad bd 61 72 59 be
       -0.22039157 -0.11534336 -0.08448911 -0.21235038
000150 90 63 23 3e 15 4b 3a 3e 20 a0 54 3e 12 23 74 be
       0.15955949 0.18192704 0.20764208 -0.23841503
000160 27 79 c5 3d e9 77 4e 3e 3c 7c e2 bd 5a 4c 14 3d
       0.096422486 0.2016293 -0.11058852 0.036205627
000170 8b a5 2a be 83 13 5a 3e db a4 46 be 1c 94 58 bd
       -0.16664712 0.21296506 -0.19398825 -0.052875623
000180 54 c1 e3 bd a0 49 27 bd 27 0a 43 bd 38 37 27 bd
       -0.11120859 -0.0408417 -0.047617104 -0.040824145
000190 bb 05 a6 bd 20 2a 8e bd 57 e4 8a bd 4c f7 c7 3d
       -0.08106562 -0.069416285 -0.067818336 0.09763965
0001a0 07 52 2f be 5e 9d 14 3e 79 f5 96 bc 81 98 87 be
       -0.17121135 0.14513156 -0.018427597 -0.2648354
0001b0 53 ff 16 3e 6d 92 53 be 58 d5 25 be 60 c4 7d be
       0.14745836 -0.20661326 -0.16194665 -0.24781942
0001c0 27 9c 2d 3d 0c 3e 62 bd d0 8e 12 3d 05 b8 59 3d
       0.042385247 -0.055234954 0.035780728 0.05315401
0001d0 3b 67 0b 3d 50 41 fa 3a 52 17 03 be 34 53 32 be
       0.034033995 0.0019092951 -0.12801865 -0.17414552
0001e0 e6 f5 32 3e d4 73 8a bd b7 a6 bd 3b 73 e5 42 be
       0.17476615 -0.06760374 0.005787696 -0.1903284
0001f0 d0 8f d1 bb a3 8e 04 3e 59 a0 34 be 5a 2b 13 3b
       -0.0063953176 0.12945037 -0.17639293 0.002245626
000200 9d ed d8 3d bb fa 67 be 75 5a 2a 3e 3a ea b3 bd
       0.10592196 -0.2265424 0.16636069 -0.087849095
000210 d7 d3 97 3d c3 bc 3d be dc ca 91 bd a2 46 63 3d
       0.07413452 -0.18529038 -0.071187705 0.055487283
000220 09 b6 34 bc 67 a4 02 3e 99 7a 30 be f6 4a 85 3d
       -0.011029729 0.12758027 -0.17234267 0.06508438
000230 da 34 13 3e db f8 12 be 24 11 68 3d 0c 19 46 3d
       0.1437563 -0.14352743 0.05665697 0.04836373
000240 0f bf 8b 3d a8 ae 98 bd 63 7c 90 3d 5b 0f 43 3e
       0.06823551 -0.07455188 0.07054975 0.19048826
000250 16 a6 5a bd ee 28 22 be bf 02 c9 bd 46 81 a7 bd
       -0.05338105 -0.15835926 -0.09814977 -0.08178954
000260 c3 a5 0c be 32 09 77 bd a8 50 e4 3c d5 67 d0 3d
       -0.13735108 -0.060311504 0.027870491 0.101760544
000270 ca d6 30 bd d2 e7 73 bc f5 ad 5e 3e 99 77 03 3d
       -0.04317359 -0.014886813 0.21746047 0.03209648
000280 d7 78 e7 3d f2 f5 27 3d f2 f7 e8 3d 12 05 d3 3d
       0.11302345 0.041006036 0.11375417 0.103037015
000290 76 a2 71 3d a7 9b 14 be 48 05 8c 3d 08 9e 22 be
       0.058992825 -0.14512502 0.06836945 -0.15880597
0002a0 5e c9 8d 3d 06 d7 96 bd ea 91 ee 3d bb 2e ea 3d
       0.06923173 -0.07365231 0.11648925 0.114346944
0002b0 24 61 4b be 95 a8 12 be 9a 9d 39 3e 37 1c 62 bc
       -0.19861275 -0.14322121 0.18126526 -0.013800672
0002c0 f4 71 6e 3e af b9 71 3e 3c e6 42 be 99 1f d1 3d
       0.23285657 0.23605989 -0.1903314 0.10211105
0002d0 ab b1 1d 3e d8 18 65 3e 81 f9 0a 3d bf 10 88 3d
       0.15399806 0.22372758 0.03392935 0.06643819
0002e0 78 a2 96 3d 36 88 f4 3d ff 39 0c 3e 0f e4 22 3e
       0.07355207 0.11940043 0.13693999 0.1590731
0002f0 ab ed fa 3c 2f f2 7f bd 4d 39 28 3e 62 c3 52 bd
       0.030630907 -0.062486824 0.16428109 -0.051455863
000300 8c 5f bf bd 55 e1 f3 bc 76 9b 17 3d fd d6 a3 3d
       -0.09344396 -0.029770533 0.037013493 0.0799999
000310 11 ea 55 be 5f bd 44 bd f0 68 11 3d 76 48 8e bd
       -0.2089007 -0.04803216 0.035500467 -0.069474146
000320 86 12 f7 3d 1b 32 9d 3d 04 35 b2 bd d8 a7 f9 3d
       0.1206408 0.076755725 -0.08701518 0.12190217
000330 33 3d ca bd 1f e9 a3 3d 73 f8 83 bd 57 99 a8 3d
       -0.09874954 0.08003449 -0.06443872 0.08232372
000340 11 b6 86 3d c5 14 4f 3e 16 80 98 bd 26 5e 48 3e
       0.06577695 0.20222767 -0.074463055 0.19567165
000350 63 c5 45 be 6e c2 ae bd 5b e9 0b be ce 40 a9 bb
       -0.19313578 -0.08533178 -0.13663237 -0.005165196
000360 f9 c8 72 3e 7d 06 80 be 38 69 06 3d 04 99 fd bd
       0.23709477 -0.2500495 0.03281519 -0.12382701
000370 7e 01 75 3d 84 81 3a 3e 1c f5 e0 bd fc 31 16 be
       0.059815876 0.18213469 -0.10984251 -0.14667505
000380 f4 09 3e 3d a8 d3 5f bc 6f 00 07 3e 92 66 00 be
       0.04639621 -0.013661303 0.13183759 -0.12539127
000390 0c f5 cc bd a2 e7 a6 bd b4 88 e0 3b 10 e8 03 be
       -0.100076765 -0.08149649 0.006852234 -0.12881494
0003a0 bc 70 a6 bd 83 32 3d 3e 87 3a d3 bd e3 36 22 be
       -0.08126971 0.184763 -0.103138976 -0.1584125
0003b0 da ef 67 3c 48 a4 d3 3c 2c b4 38 be de 04 af 3d
       0.014156306 0.025835171 -0.1803748 0.0854585
0003c0 ff 2c 74 3e d8 26 12 3e 50 cd f9 3c 01 23 40 bd
       0.2384529 0.1427263 0.030493408 -0.046908382
0003d0 05 bb 79 be 01 df 09 3e b0 7a 68 3e 61 14 84 bc
       -0.24387749 0.13463975 0.22703052 -0.016122999
0003e0 dc df 62 be 5c 76 43 bd 1c 2b a9 3d 1e 08 3d be
       -0.22155708 -0.0477203 0.082601756 -0.18460128
0003f0 aa 21 08 3e ad df 14 3e 32 2f 22 3d 7f 79 75 3e
       0.13294092 0.1453845 0.03959579 0.23972128
